sample_weight/MLP/sample_weight.pt (torch, 21335 bytes, 5 tensors)

weight f4 [64, 4]
000000 a2 a8 71 3d 51 f3 97 be 24 d0 6e be 5d 45 0d be
       0.05899871 -0.29677823 -0.23321587 -0.13795991
000010 ce 19 63 3e f7 d6 04 3c 45 f2 3f be 95 7f 74 be
       0.22177812 0.008107892 -0.18744762 -0.23876794
000020 7e fb 3d bf 50 ed 2b 3e 36 be 5b 3e 68 41 29 3c
       -0.7421187 0.16789746 0.21459278 0.0103305355
000030 fb 7f 23 be 65 c3 95 be 50 84 f7 3d b3 3e 7a be
       -0.1596679 -0.29250637 0.120857835 -0.2443798
000040 05 40 a7 3d 15 19 42 3e 2b aa ec 3d c1 60 90 3c
       0.08166508 0.1895488 0.115558945 0.01762426
000050 a6 08 c5 3e c7 3e b7 3d ae a6 d0 3d a3 94 e5 3d
       0.3848316 0.08947521 0.101880416 0.11209991
000060 d4 ae 0c 3e 2c 6e 12 bd 7e 0f 7a bd ec 39 01 be
       0.13738567 -0.0357496 -0.06104993 -0.12619752
000070 0b ca c3 3e 84 54 49 3b 37 7b be bd 16 64 24 3e
       0.38240084 0.0030720541 -0.09300845 0.16053805
000080 c4 cb 1a be c3 8a 22 3e c3 f7 3b be 82 2c 14 be
       -0.15116793 0.15873246 -0.18356232 -0.14470103
000090 c8 30 3d be a4 f6 33 3e 7a 74 d3 bc c9 cd af 3d
       -0.1847564 0.17574555 -0.025812376 0.08584172
0000a0 78 d6 6c be ea 39 c3 3e 95 af 83 3e 9a b0 e9 3a
       -0.23128688 0.38130122 0.25719896 0.0017829121
0000b0 a1 9a 50 be 49 73 8e be b9 de 6e be 1d 60 30 be
       -0.20371486 -0.2782233 -0.2332715 -0.17224164
0000c0 18 16 97 3f c9 99 a8 be d7 31 59 3e 04 16 84 3e
       1.1803617 -0.3292983 0.21210419 0.25798047
0000d0 9c a5 50 3d 07 d8 08 be 8a 64 58 be d4 a7 17 be
       0.050939187 -0.13363658 -0.21132103 -0.14810115
0000e0 40 a4 ef bd 18 23 9c 3e 0f f6 81 3c 73 84 94 3d
       -0.1170125 0.30495524 0.0158644 0.07251825
0000f0 96 de be 3d f0 06 a5 3e 3b e7 61 bd 50 05 39 bd
       0.09319799 0.32231855 -0.05515216 -0.045171082
000100 fd 5d 90 be c2 70 df bd 3d 0c 91 3c 8e 58 40 bd
       -0.28196707 -0.10910179 0.017706031 -0.046959452
000110 e9 65 db be 51 86 70 be cb 8f 29 3c 8e 47 8e bd
       -0.4285119 -0.23488738 0.010349224 -0.06947242
000120 0e e9 46 3f 8d 33 8a bd 0b 08 92 3e f1 de 08 3d
       0.77699363 -0.06748114 0.2852176 0.03341574
000130 84 1b 69 3f 56 8c a8 be 85 8e 74 3e 26 1a 52 3e
       0.9105761 -0.32919568 0.23882492 0.20517787
000140 52 5f 7a 3f f4 4a 00 bf 87 98 4f bd 17 d3 e9 3d
       0.978017 -0.5011437 -0.05068257 0.11417215
000150 b2 17 45 3e 4c e8 e8 be 59 c6 56 3c 4a 45 ce 3d
       0.1924732 -0.45489728 0.013108813 0.100718096
000160 13 be 25 3f 69 43 fb bd f1 c0 44 be 21 75 78 3e
       0.64743155 -0.12268717 -0.19214226 0.24263431
000170 ae 1b 90 3e 79 fb 75 be 49 a4 1d bd 2b f6 71 be
       0.28146118 -0.2402171 -0.038486753 -0.23629062
000180 00 b7 8a 3e 5d 05 0c 3e 09 42 53 bd 41 5a 01 be
       0.27092743 0.13673921 -0.051576648 -0.12632085
000190 59 93 7c be 42 99 60 be 94 a0 10 bd 1a 48 2c 3e
       -0.24665584 -0.21933463 -0.03530939 0.1682438
0001a0 cb f3 a7 3f 3d e1 8f bd 3b 9a b3 3d cd 59 08 3d
       1.3121275 -0.07025383 0.087696515 0.033288766
0001b0 b4 b5 a2 be ec 05 34 3e ef 3e 8e be 63 2f bd bc
       -0.31779253 0.17580384 -0.2778239 -0.023093885
0001c0 f5 47 06 bf e5 26 05 3e 62 a2 0b 3d a2 79 af 3d
       -0.5245355 0.13003118 0.034090407 0.085681215
0001d0 6d ab aa bc 91 73 49 bd 6f 42 1c bd fc 2c 86 be
       -0.020833695 -0.04918248 -0.038149294 -0.26206195
0001e0 71 8a 7d bd 3a a4 8f 3e 8a da 04 3e b3 b7 5e 3e
       -0.061899606 0.28054982 0.12973991 0.21749763
0001f0 5f 8f 98 3f 8b e9 86 3d 93 98 29 3e 59 a6 a1 3c
       1.1918753 0.065875135 0.16562109 0.019732641
000200 67 71 c1 bd 15 af c6 bd 55 7e 0e bd e0 29 0c 3e
       -0.09445458 -0.09701363 -0.03478845 0.13687849
000210 4d 53 27 3f 5c ea a7 be d6 28 49 3e bd 25 0c 3e
       0.6536148 -0.3279599 0.19644484 0.13686271
000220 0f bd 38 3e 5f b0 8c 3e da e9 66 bd 8b dd 84 be
       0.1804087 0.2747831 -0.056375362 -0.25950274
000230 d4 17 0c be 7b 41 26 3e 46 05 d7 bd 3c 52 48 be
       -0.13680965 0.16235916 -0.10499053 -0.1956262
000240 bb 98 24 be 29 00 7b 3e 0e 97 0c bd f1 4f cd 3d
       -0.16073887 0.2451178 -0.034323744 0.10025013
000250 4f af fb bc 22 b7 61 3e a4 ed 43 3e bc 32 6e 3c
       -0.030723242 0.22042516 0.19133621 0.014538463
000260 38 a2 85 3e 65 b8 0d bc e0 23 1c 3d 90 b2 6a be
       0.26100326 -0.00864992 0.03812015 -0.22919679
000270 7f e3 83 be f1 ec 52 3e c8 1c 93 be c5 08 29 be
       -0.25759503 0.20598198 -0.28732896 -0.16507252
000280 5c 12 13 bf fa c3 94 be 90 22 13 be 16 8d fe 3d
       -0.5744989 -0.29055768 -0.14368653 0.12429254
000290 8b 25 46 3e fc 86 52 3e 0f 13 a5 be cf fe 2f 3d
       0.19350259 0.20559305 -0.32241103 0.042967614
0002a0 e2 d7 8f be f3 80 3f be 99 0f c1 3d 06 16 49 be
       -0.28094393 -0.18701534 0.09426803 -0.19637308
0002b0 a6 05 aa be dd f3 58 bd c1 69 9c 3e ef 5a 11 3d
       -0.33207434 -0.05296694 0.30549434 0.03548711
0002c0 f8 0c 17 3f 40 da 51 be dd 0f 69 3e 08 7e 07 3e
       0.59004164 -0.20493412 0.22759958 0.13231671
0002d0 df bb fd bd d9 75 66 3e 90 c6 1a 3d e1 31 76 3d
       -0.12389349 0.22505893 0.03778702 0.060106162
0002e0 64 80 3d be 72 de 89 3e 1e f7 df 3a bb 88 b0 bd
       -0.18506008 0.26927525 0.0017087196 -0.08619829
0002f0 af bf 83 bf 50 b1 48 be e2 ac c9 3d 05 4d ec bd
       -1.0292872 -0.1959889 0.09847428 -0.11538128
000300 76 e7 e1 3e f2 af c7 be 36 71 99 bd be 45 e5 3d
       0.44121903 -0.39001423 -0.074922964 0.11194943
000310 b8 de c8 be 5f af bb 3e bd f4 63 3e df cc 22 3e
       -0.3923242 0.36657235 0.22261329 0.15898465
000320 76 64 40 3e c1 4b b8 be 30 3c 9c 3e b0 b9 9b 3d
       0.18788323 -0.35995296 0.3051467 0.076037765
000330 f5 ba 47 be 75 28 53 3e 37 53 5f 3e 76 b5 89 3c
       -0.19504912 0.20620902 0.21809088 0.01681016
000340 ca e1 40 3f 27 66 a7 be 07 22 01 be 41 00 1a 3e
       0.75344527 -0.32695124 -0.12610637 0.1503916
000350 f1 97 c7 3d 21 b5 74 3e 88 7f 10 3d 53 7d 2a 3d
       0.097457774 0.2389722 0.035277873 0.041623425
000360 b0 23 5f 3d 4e 91 10 be 69 69 5c be dd 5b c6 3d
       0.054477394 -0.1411793 -0.21524586 0.0968549
000370 5a c9 9a 3d 8e 30 50 be d8 a0 05 3d 21 e2 69 3e
       0.07557936 -0.20331022 0.032624096 0.22840168
000380 b3 1a 4e 3e 85 22 08 bf ec 30 50 be be 2d 76 3e
       0.20127372 -0.5317767 -0.20331162 0.24040887
000390 f7 5c 0c 3d 85 2b 69 3e 75 af 6b be 16 65 73 be
       0.034268346 0.22770508 -0.2301615 -0.2376903
0003a0 91 a1 d0 be 85 2c 6c 3e 74 a5 0c 3e 2f 3b 04 3d
       -0.40748265 0.23063858 0.1373499 0.032283004
0003b0 70 96 c2 3e 75 76 9f be 1c 67 0f 3f 22 23 b0 3d
       0.380054 -0.31145063 0.5601671 0.08600451
0003c0 b7 84 40 3e 56 4a 28 be c4 5c ba bd 97 c2 94 be
       0.18800627 -0.16434607 -0.09099725 -0.2905471
0003d0 74 43 46 bd 49 17 54 3e ce 10 a1 3e 3c 43 0c 3a
       -0.048404172 0.20712008 0.31458133 0.0005350595
0003e0 3f 47 4b be a0 52 03 be 21 fb bb bd 7e b1 b0 3d
       -0.19851397 -0.12824488 -0.091787584 0.08627604
0003f0 5a eb 3b 3e 37 5c fb 3d 77 e3 37 be 28 35 f4 3d
       0.18351498 0.12273448 -0.17957865 0.11924201

bias f4 [64]
000000 00 00 00 00 00 00 00 00 88 ac 5e bf ce 88 11 bc
       0.0 0.0 -0.8698201 -0.008882714
000010 96 3e 96 bf 69 f5 cd 3f 00 00 00 00 f0 98 5c 3e
       -1.173785 1.6090518 0.0 0.21542716
000020 00 00 00 00 94 84 e1 bf 86 99 e7 bf 00 00 00 00
       0.0 -1.7618585 -1.8093727 0.0
000030 c3 2c f6 3f 00 00 00 00 14 ce d9 bf 42 74 82 3e
       1.923241 0.0 -1.7016015 0.25479323
000040 ce 33 68 bb 2e 4d 98 3d 4f 98 03 40 88 df f0 3f
       -0.0035431269 0.07436596 2.0561712 1.8818216
000050 e1 72 25 40 9d d8 17 40 5d c0 ea 3f 00 00 00 00
       2.5851367 2.372596 1.8339955 0.0
000060 00 00 00 00 c3 0a d1 bf bd a4 e3 3f 85 6e 98 be
       0.0 -1.6331409 1.7784649 -0.2977182
000070 71 c2 c0 bf 00 00 00 00 5e 0d e2 bf 4b 29 cb 3f
       -1.5059339 0.0 -1.7660329 1.5871977
000080 3e b6 bb bf 6f 9a b8 3f 00 00 00 00 00 00 00 00
       -1.4664991 1.4422129 0.0 0.0
000090 9c 31 bc bf b3 39 e0 bf 00 00 00 00 00 00 00 00
       -1.470264 -1.7517608 0.0 0.0
0000a0 09 57 d0 bf 97 62 0c 3f b4 90 54 bc 4f 67 f5 bf
       -1.6276561 0.54837936 -0.012973953 -1.9172152
0000b0 60 4e f9 3f ac b9 dd bf a0 53 48 3e 0e 07 f6 be
       1.9477043 -1.7322288 0.1956315 -0.48052257
0000c0 7b ae ec 3f 93 ee f5 bf 02 a6 d5 3f 4f f2 e9 bf
       1.8490747 -1.9213432 1.6691287 -1.8277072
0000d0 ba f3 04 40 b6 ed fe 3e 6f 2e 41 3f f2 9d d9 3f
       2.077376 0.49790734 0.7546148 1.7001326
0000e0 b5 55 04 40 00 00 00 00 42 9c d9 bf 71 53 70 3f
       2.0677311 0.0 -1.7000811 0.9387732
0000f0 00 00 00 00 f7 a7 da bf fa 16 c4 3f 2e 5a a4 bf
       0.0 -1.7082509 1.5319512 -1.2840021

weight f4 [64, 64]
000000 73 6b 57 3e 5c 7a 5b 3e 8a 4f 41 bc ef 6a 3c be
       0.21037082 0.21433395 -0.011798749 -0.18400167
000010 ad 3a f2 bd fc 42 e6 3d 6d 6a 0c 3e 8d f0 06 3e
       -0.11827598 0.11243245 0.13712473 0.131777
000020 84 d1 f7 bd 9a f9 4b 3e 3c 59 0d 3d 66 bd 01 3d
       -0.12100509 0.19919434 0.03450893 0.031674765
000030 92 ea 40 be 39 36 8f bd 98 19 8e 3b e8 6d 61 3e
       -0.18839481 -0.06992764 0.004336547 0.22014582
000040 3d fa 25 3b 8a 29 0b 3e 47 01 7c bd df ce e8 bd
       0.0025326156 0.13590065 -0.061524656 -0.113675825
000050 b1 82 c2 3d 30 33 2c bd f6 9a e9 3d dd 53 b7 bd
       0.09497584 -0.042041004 0.114065096 -0.089515425
000060 6a 87 31 3e d1 68 c7 3d c4 00 5c be 53 3b 68 3e
       0.17336813 0.09736789 -0.21484667 0.2267888
000070 7e e6 0e be fa 1e fe 3d 2c 72 21 3d 99 ed 6c bd
       -0.13955113 0.12408252 0.039415523 -0.05784378
000080 91 ee b8 bd 6c 9e 16 be 16 46 a7 bc 72 1b 4b 3e
       -0.09029878 -0.1470887 -0.020419162 0.19834688
000090 08 98 88 3c 2f a1 e0 bd 3f 29 1c bc 61 34 06 3e
       0.016674057 -0.10968243 -0.009531318 0.13105918
0000a0 9a 0e 3c be 36 a8 8c 3d 5c 21 f2 bd 71 f3 16 be
       -0.18364945 0.06868021 -0.11822769 -0.14741303
0000b0 1e aa 73 be bb bf 09 be fd e3 9e 3e c1 30 11 be
       -0.23795363 -0.13452046 0.31033316 -0.14178754
0000c0 08 f3 89 be 02 20 3a be 30 78 64 be 98 79 7d 3e
       -0.2694323 -0.18176273 -0.22311473 0.24753416
0000d0 ff 7e 70 bd 96 aa b6 3d 67 cd 82 be d6 55 2a be
       -0.058714863 0.089192554 -0.25547335 -0.16634306
0000e0 5a d3 0b 3e 59 60 49 3e a2 10 16 3d cd 7e a2 bd
       0.13654843 0.1966566 0.036636956 -0.079343416
0000f0 75 cd db bc 8f 57 12 3e 83 e0 2a bd dc 31 3a 3e
       -0.026831368 0.14291213 -0.041718017 0.18183082
000100 9f b1 39 bd 77 59 d8 3c be 44 89 bd 5e 2d 4d 3e
       -0.04533541 0.026409848 -0.06702565 0.20036837
000110 df 75 af bd f2 9b fb 3d 2c 58 1f 3e d8 d2 fb bd
       -0.08567404 0.122856036 0.15560979 -0.12296075
000120 96 d8 59 be 55 ce a0 3d b6 0a 16 be 92 93 56 3e
       -0.21274027 0.07851855 -0.14652523 0.20954731
000130 67 f6 1f 3e 05 1a 81 3d e5 b7 bd 3d 54 8d 10 3e
       0.15621339 0.06303791 0.09263591 0.14116412
000140 03 9f fc bc fa 11 ef bd 4f 15 21 3f c2 a4 32 3e
       -0.030837541 -0.11673351 0.6292314 0.17445663
000150 ed f0 96 3f 38 a1 4c 3f 8f 18 76 3e 95 a8 1e be
       1.1792275 0.799335 0.24032806 -0.15493996
000160 f4 6d d1 3d 44 fc 49 be 9e 14 e0 3e 34 32 18 3d
       0.1022605 -0.19725138 0.4376573 0.037157252
000170 ff bf e8 3d 4d 23 28 3e 6a 45 a8 3d f5 97 32 3f
       0.11364745 0.16419716 0.08216365 0.6976312
000180 39 b6 06 be a9 b8 7c 3e 57 56 b2 3d 4f 35 2a be
       -0.1315545 0.24679817 0.08707874 -0.16621898
000190 77 5c 22 3e df 09 dd be e2 9c 06 b9 3f b7 14 3e
       0.15855585 -0.43171594 -0.00012837679 0.14523028
0001a0 8d 3c b4 3d 20 d6 82 3e 78 9d 72 3d 34 64 33 be
       0.08800612 0.2555399 0.059232205 -0.17518693
0001b0 66 d7 93 bc d2 8b 9b be 80 a3 c4 bd 3d d1 4e be
       -0.018047046 -0.30380112 -0.09601498 -0.20197006
0001c0 0d ce 00 3f da 77 4b 3d ef 45 a6 3e 43 34 cb be
       0.5031441 0.049674846 0.3247523 -0.3968831
0001d0 5d 7f d2 3e 0c 46 b9 3d 00 3b 94 3d c1 d8 06 3e
       0.41112795 0.090465635 0.07237816 0.13168623
0001e0 dc bb b6 3e 52 76 33 3c 6d 58 21 bd 0c 11 9d 3e
       0.356902 0.010953503 -0.03939097 0.30677068
0001f0 0a 68 63 3d ec b5 8a be 0e 5b 8f 3e dd 18 36 bd
       0.05551914 -0.2709192 0.27999157 -0.044457305
000200 1d ee 96 3d c4 22 06 3e 82 51 f0 be fe 07 3b 3e
       0.07369635 0.130992 -0.46937186 0.18264768
000210 d0 9d ad be fb 52 c3 3d 28 a0 2a be 89 86 f4 3d
       -0.33909464 0.09537312 -0.16662657 0.11939723
000220 46 0b c8 3d 84 99 77 be c4 2f 36 bf 10 19 1d be
       0.09767775 -0.24179655 -0.71166635 -0.15341592
000230 18 94 be 3e 6a ff 51 3e e3 43 d2 be d8 52 2c 38
       0.37222362 0.20507589 -0.41067418 4.108515e-05
000240 e4 34 50 be fe 9d 12 be 01 f1 09 3f 18 98 9d 3e
       -0.20332676 -0.14318082 0.5388337 0.307801
000250 ef 39 c9 3f 22 32 97 3f 4d 92 c9 3e 62 6b bf 3d
       1.5720805 1.1812174 0.3936943 0.093466535
000260 b8 3e 9e 3b b9 2b 44 be 07 c2 a2 3f 10 25 d6 3d
       0.004829254 -0.19157304 1.2715462 0.10456288
000270 f0 0b d6 bd 15 b9 6b bb 38 3d 57 be de c0 93 3f
       -0.10451496 -0.0035968472 -0.21019447 1.1543233
000280 0f fc 0b be 76 8b 35 3e 0c fb ed 3d 8d d7 f7 bd
       -0.13670371 0.17728981 0.11620149 -0.1210166
000290 ea 17 79 3a 87 ae c4 be 4a 00 58 bd 3c 1c e3 bd
       0.00095021597 -0.38414404 -0.05273465 -0.1108937
0002a0 aa 11 51 be be 58 86 3d b8 3a 16 be 1e ad ce be
       -0.20416895 0.06559895 -0.14670837 -0.40366453
0002b0 36 2c 28 3e e1 6b 34 be 69 60 94 be f1 63 d5 3d
       0.16423115 -0.17619278 -0.28979805 0.10419453
0002c0 6d 91 5f 3f e6 d4 6b be f3 4a c7 3e 45 22 4a bf
       0.8733128 -0.23030433 0.3892437 -0.7895854
0002d0 83 de b9 3e bf ea 3e be e1 39 db bc 48 52 1f 3e
       0.36302575 -0.18644236 -0.026760997 0.15558732
0002e0 b5 4f da 3e 89 09 fd bd e9 b1 db be 96 72 9e 3e
       0.42638937 -0.12355334 -0.42909172 0.30946797
0002f0 cb 11 fe bd 4f 11 b3 be 57 5d d0 3e 0d 31 ff bb
       -0.124057375 -0.34974143 0.40696213 -0.0077878297
000300 12 4d d3 bd 79 25 e2 3d 01 f5 6a be 8e 28 fd 3d
       -0.10317434 0.110423036 -0.22945024 0.12361251
000310 d9 83 41 3d ed 7b 8e 3d 57 4a 24 be 09 84 a3 3d
       0.04724488 0.06957231 -0.16043983 0.07984168
000320 5a 03 13 bd 48 a3 87 be 46 58 d6 be 6e 73 e0 3c
       -0.03589187 -0.2649176 -0.41864222 0.027398791
000330 df 20 ae 3e d8 14 46 3d dc 3f 60 3d 5f 91 51 3e
       0.34009454 0.048359722 0.0547484 0.20465611
000340 db 35 09 be ec 73 01 be ba dc bc 3e 7a de d2 3d
       -0.1339945 -0.12641877 0.3688715 0.1029634
000350 97 37 9d 3f e5 c4 87 3f 3f b4 8d 3e fa 08 0a bc
       1.228259 1.0606962 0.2767658 -0.008424992
000360 e5 5d a0 bd 57 41 5f be 87 b9 28 3f 6f 13 31 3e
       -0.07830409 -0.21802269 0.6590809 0.1729257
000370 54 66 cb bd cf af a4 3d 0a 67 63 bb cc c2 fa 3e
       -0.09931627 0.08041345 -0.0034698867 0.48976743
000380 e1 a8 bf bd 70 96 3d 3e 46 26 b9 bd bb 0d 0b be
       -0.09358383 0.18514419 -0.09040503 -0.13579457
000390 60 92 fd bd bd 21 fb bd 5e 32 dd bb 87 ed d6 3d
       -0.123814344 -0.122622944 -0.006750389 0.104945235
0003a0 19 57 0d 3e 1d 46 ba 3e 3b c1 3a 3d 2d ed df bd
       0.13802756 0.36381617 0.045594435 -0.109339096
0003b0 d4 a8 93 3e a6 7b df 3b df ac ec 3d 8b cf 51 be
       0.28839743 0.00682016 0.1155641 -0.20489328
0003c0 ee 00 59 3f 95 32 41 be 8f 3b a4 3e 55 fa ae be
       0.84767044 -0.18866952 0.3207669 -0.34175363
0003d0 0d d7 cc 3e da bc 32 3e dc ae 16 3d cc 70 ab 3e
       0.4000782 0.17454854 0.036787853 0.33484495
0003e0 a8 ec df 3e 4a d5 32 be f2 2c 32 bd 82 6c 79 3d
       0.43735242 -0.17464176 -0.043499894 0.060894497
0003f0 16 e5 e8 3b 47 4e 01 be c9 1d 0a 3d 54 e8 6f bd
       0.0071073873 -0.12627517 0.03371981 -0.058571175

bias f4 [64]
000000 69 f0 95 bd c3 2b e5 3f 64 e2 fb 3f cf f2 eb 3f
       -0.07321245 1.790398 1.9678464 1.8433474
000010 f8 b0 ac bf 00 00 00 00 2e 0f 13 bf 92 f2 e0 3f
       -1.3491507 0.0 -0.5744504 1.7574027
000020 00 00 00 00 7e 88 23 3f 5a a9 e2 3f e7 d7 34 3c
       0.0 0.63880146 1.7707932 0.011037803
000030 00 00 00 00 51 0c b1 bf 00 00 00 00 03 c4 a6 bf
       0.0 -1.3831884 0.0 -1.3028568
000040 7a 9f ef bc a1 91 df 3f 00 00 00 00 1f 7a a9 bf
       -0.029250849 1.7466317 0.0 -1.3240393
000050 d0 93 a5 bf 78 e5 dc 3f 81 26 61 bf f7 79 a1 bf
       -1.2935734 1.7257528 -0.8794938 -1.2615346
000060 ea 20 e7 3f 27 0e 74 bd 7e 21 dc 3f 16 66 ac bf
       1.805692 -0.05958381 1.7197721 -1.3468654
000070 2b 16 dd 3f 00 00 00 00 aa 6a b0 bc 8b 9f d7 3f
       1.727239 0.0 -0.021535236 1.6845564
000080 fd c9 d5 3f ee 6d b6 bf 16 3c de 3f 00 00 00 00
       1.6702267 -1.4252298 1.7362087 0.0
000090 91 56 e7 3f 9d fd e4 3f 00 00 00 00 86 5f a8 bf
       1.8073293 1.7889897 0.0 -1.3154151
0000a0 77 34 ae bf 9f fe a9 bf 84 0a e7 bc 32 7f 6c bd
       -1.3609761 -1.3280829 -0.028203256 -0.05773849
0000b0 0a 38 56 bf 9a c3 55 bd e2 76 96 bd 26 16 e2 3f
       -0.8367926 -0.052188493 -0.07346894 1.7663009
0000c0 de 59 0f bd 00 00 00 00 33 4b a7 3f 84 33 c5 bc
       -0.034997813 0.0 1.3069824 -0.024072416
0000d0 85 63 db 3f f3 dc e7 3f 86 21 ae bf fe b8 e6 3f
       1.7139746 1.8114303 -1.360398 1.8025205
0000e0 df 4c db 3f 44 59 e3 3f 36 bc e2 3f 83 9f b7 bf
       1.7132834 1.7761617 1.7713687 -1.4345554
0000f0 f8 3b dd 3f 3a 6a a6 bf 54 9d 8f bc 00 00 00 00
       1.7283926 -1.3001168 -0.017531075 0.0

weight f4 [1, 64]
000000 57 f0 12 be f8 40 c0 3e e2 e5 cf 3f 12 de ee 3e
       -0.14349495 0.37549567 1.624203 0.466538
000010 f9 ee 0f bf bd 0d 56 3e 1f ac 18 bf 7a ae 67 3f
       -0.5622402 0.20903678 -0.59637636 0.90500605
000020 bb 72 dc 3d 68 1f a2 3e 7e e9 25 3f a2 0f 7f be
       0.107640706 0.31664586 0.64809406 -0.24908307
000030 d0 4e 1c 3d c9 06 a4 be be 94 49 be a2 2b 9a be
       0.0381611 -0.32036427 -0.19685647 -0.30111414
000040 5c e7 79 3e 12 56 e6 3e 1b 16 96 be 49 b5 13 bf
       0.24404663 0.4498754 -0.2931374 -0.57698494
000050 28 65 81 be 9c 2b 0b 3f 49 f2 9d bd 02 ae d1 be
       -0.2527249 0.5436342 -0.07712228 -0.4095307
000060 80 0d 8a 3f 47 2f b6 bd 0e 8c 09 3f 9f 58 dd be
       1.078537 -0.08895736 0.5372933 -0.43231675
000070 bb 22 0d 3f ba 50 84 be 9b 5c 19 bd b6 e3 99 3f
       0.5513112 -0.2584284 -0.03744183 1.2022617
000080 10 2d a3 3f 2c 01 b1 be b9 8f 99 3f fa e5 8f 3d
       1.2748127 -0.34571207 1.1996986 0.070262864
000090 44 4b e3 3e 3c 42 d1 3e 33 b4 0d be f4 61 79 be
       0.4439336 0.40870845 -0.13838272 -0.24353772
0000a0 19 7f 15 bf d4 d6 0d bf 0e d3 9f bd 22 a7 6d 3e
       -0.5839706 -0.55405927 -0.07803927 0.23208287
0000b0 f6 77 cc be e9 49 3d bc 58 58 9b bd 6f ca 1e 3f
       -0.39935273 -0.011553266 -0.075852096 0.6202764
0000c0 12 e0 4d be 90 9a 37 3d 88 6f 95 3f 14 6e 01 3e
       -0.20105007 0.044825137 1.1674662 0.12639648
0000d0 18 74 28 3f 72 bf f1 3e b4 1e d1 be f3 39 8c 3f
       0.65802145 0.47216374 -0.40843737 1.0955185
0000e0 a5 b7 03 3f 78 c9 4c 3f 8a e1 87 3f 6d 08 de be
       0.51452094 0.79994917 1.0615704 -0.43365803
0000f0 74 82 c2 3f 45 20 08 bf 05 f6 5c be 21 be 3d be
       1.5196061 -0.5317424 -0.21578224 -0.1852956
